models/filter/breast_cancer_filter.onnx (onnx, 40087 bytes, 4 tensors)

classifier.weight f4 [3, 64]
000000 00 fc 56 39 58 1e a9 bd 4a 88 fc bd 0a 53 bc 3d
       0.00020502508 -0.08257741 -0.123306826 0.09195526
000010 0a 92 8a 3d d8 b9 90 bd 70 20 49 3d 4a b0 8a bd
       0.06766136 -0.07066697 0.0491032 -0.06771906
000020 90 b7 3b 3c 52 f6 d0 3d 80 cd 57 3c 20 4b e8 bd
       0.011457339 0.10203232 0.013171554 -0.11342454
000030 64 1c 7e bd b0 8c c6 bc 7e 56 a7 bd 38 5e cd 3d
       -0.062038794 -0.024237007 -0.08170794 0.100277364
000040 88 53 89 bc 14 76 ea bd 68 b5 d0 3d 90 ce 02 bd
       -0.016763464 -0.11448303 0.101908505 -0.031935275
000050 32 41 8c bd d0 b0 fd bd 88 79 43 bd 3a 7d e4 3d
       -0.068483725 -0.1238724 -0.047723323 0.111566976
000060 f0 bf 12 3c f8 e2 8a bc 62 22 a7 bd f8 a1 cd bd
       0.008956894 -0.01695393 -0.08160855 -0.10040659
000070 c0 15 d8 bd 0c 59 87 3d fc cf d7 bd c0 98 1e 3c
       -0.105510235 0.06608781 -0.10537717 0.009679973
000080 00 0e 5d 3b 52 b4 a0 3d 5a a7 df 3d d4 24 bd bd
       0.0033730268 0.07846893 0.10920592 -0.0923554
000090 62 21 84 3d bc 52 16 3d 74 4a ef bd a8 5d 7b bd
       0.0645168 0.036699995 -0.11684123 -0.061368614
0000a0 70 20 ec bc 56 9c da 3d 60 7f ab 3c 2e e9 a7 3d
       -0.028824061 0.1067435 0.02093476 0.08198772
0000b0 3c 40 dc bd 44 a8 46 3d 78 7f c9 3d 9c 39 fa 3d
       -0.10754439 0.048500314 0.09838766 0.12218019
0000c0 f4 71 d4 bd 10 27 00 3c b6 23 82 3d 76 8b f0 3d
       -0.10373297 0.007821813 0.063544676 0.1174535
0000d0 b4 c8 80 3d 50 05 89 bc 5c a1 f4 bd 60 c6 1d bd
       0.06288281 -0.016726166 -0.11944839 -0.038519263
0000e0 10 ad eb 3d 44 7f ca bd 00 6f 11 bc 50 9f e0 3d
       0.115076184 -0.09887555 -0.008876562 0.109678864
0000f0 5e f0 b8 bd be 4c 80 bd 18 ee 18 bd 8a c9 a0 3d
       -0.090302214 -0.062646374 -0.03733644 0.078509405
000100 68 36 4a bd d0 c9 db 3d 00 64 96 3b 58 a2 64 3d
       -0.049368292 0.10731852 0.0045895576 0.055818886
000110 5c 2d df bd 10 a5 0d 3c a0 b5 64 3c 3c be a8 bd
       -0.108973235 0.008645311 0.013959318 -0.08239409
000120 4c 3a 7d 3d 3a 07 b2 3d c8 fe 68 3d 20 65 63 3d
       0.061823174 0.086927846 0.056883603 0.055516362
000130 ec 2d d9 bd 78 89 6b 3d 24 66 82 bd 66 cd e0 3d
       -0.10604462 0.057504147 -0.06367138 0.10976677
000140 04 e7 9d bd 5c b7 62 3d b4 12 4e 3d 40 74 f2 bd
       -0.07710078 0.055350646 0.050310805 -0.11838579
000150 c0 2f bd bb c8 de 32 bd 26 26 da bd 90 63 f6 3d
       -0.0057735145 -0.043669492 -0.106518075 0.12030709
000160 04 5a 48 bd a8 ff ad bc a0 c4 87 bd fc 30 c8 3d
       -0.04891397 -0.02124007 -0.066293 0.09774968
000170 94 69 04 bd d8 c0 68 3d 58 b8 3d bd 46 6a 89 bd
       -0.03232725 0.056824535 -0.046318382 -0.06709723
000180 30 90 3e bc c2 09 9d 3d e0 1e a3 3b 44 10 ee bd
       -0.011631057 0.07667877 0.004978046 -0.11624196
000190 f8 2f 85 3c d4 b4 20 3d 18 62 d9 bc f0 f8 4b bc
       0.016258225 0.03923495 -0.026536033 -0.012449488
0001a0 34 e0 06 3d a2 e9 e4 3d f8 49 aa 3c b4 93 41 3d
       0.03292866 0.111773744 0.020787224 0.04726
0001b0 d8 0d 8b 3c d4 31 7d 3d be a0 9d bd 66 e2 cc 3d
       0.016974375 0.061815098 -0.07696675 0.100041196
0001c0 60 c7 d5 3d 14 1a d0 3d ce a9 ee bd b0 ef 9e bd
       0.104384184 0.10161224 -0.116534814 -0.077605605
0001d0 60 47 94 bc 70 4f d0 bc 08 fe ff 3d 52 0f cd 3d
       -0.01810044 -0.025428504 0.124996245 0.10012688
0001e0 4c 11 ee 3d 80 a1 99 bc 58 01 dc 3d d0 82 cb 3c
       0.11624393 -0.018753767 0.10742444 0.02484265
0001f0 10 e4 aa 3d 36 be c9 bd 60 ca 63 3c 2a 5d 9d 3d
       0.08344281 -0.09850733 0.01390323 0.07683785
000200 84 d5 c2 bd 0a 07 e9 bd 50 7a b9 bd dc 4e 20 bd
       -0.09513381 -0.11378296 -0.090565324 -0.039137706
000210 8e e0 ec bd 7e e1 82 3d 40 3c a0 bb d2 a2 c0 3d
       -0.11566268 0.063906655 -0.004889995 0.094060555
000220 c4 37 be bd 40 32 13 bc 76 13 f6 bd 40 c2 0f 3b
       -0.0928798 -0.0089841485 -0.12015431 0.002193585
000230 02 c6 ea bd 80 7e 41 3d 52 91 f7 3d 9e f4 b6 3d
       -0.11463548 0.04723978 0.120882645 0.08933376
000240 30 08 e5 bd 2c 26 7b 3d 48 84 33 3d 80 3a d9 3a
       -0.11183202 0.0613157 0.043827325 0.001657322
000250 c0 c4 4e bc be c4 f0 3d 5c d0 be bd 28 5c 8e 3d
       -0.012620151 0.117562756 -0.09317085 0.06951171
000260 f8 c5 97 bc 3a e8 d2 3d 28 cc cf bc c6 f6 b8 bd
       -0.018527016 0.102982 -0.025365904 -0.09031443
000270 a4 e0 93 bd c0 c3 73 bc 98 b3 cd 3d c6 8e ea 3d
       -0.07220581 -0.014878213 0.100440204 0.11453013
000280 40 35 91 3b 44 9c c9 3d 74 fd d2 bd a4 47 e4 3d
       0.0044313967 0.098442584 -0.103022486 0.11146477
000290 cc 87 15 bd e4 30 48 3d a0 60 8e 3d 00 82 82 3d
       -0.03650646 0.04887475 0.069520235 0.06372452
0002a0 9c a5 c7 3d 58 b2 0a bd e0 92 50 bd 80 1d cf 3b
       0.09748384 -0.033861488 -0.05092132 0.0063206553
0002b0 96 61 c1 bd 6c ff 46 bd be 70 80 bd e8 88 40 3d
       -0.09442441 -0.048583433 -0.06271504 0.047005564
0002c0 80 1b ef bc 3c 31 9b 3d a4 ae be 3d cc 72 45 3d
       -0.029187918 0.0757775 0.09310654 0.048205182
0002d0 d0 18 00 3d 06 d1 c1 bd d0 8f 35 3c 74 7f d6 bd
       0.031273663 -0.09463696 0.011081651 -0.104735285
0002e0 f2 54 ca 3d 1c 9c 4a bd 40 b0 d2 3c 80 7b db 3b
       0.09879483 -0.049465284 0.025718808 0.006698072
0002f0 12 1f b7 bd 38 01 ad 3c 98 41 e6 bd 14 91 d7 3d
       -0.08941473 0.021118745 -0.1124298 0.10525718

classifier.bias f4 [3]
000000 b4 ae e1 3d 94 24 99 bd 40 f2 e2 bc
       0.1101965 -0.0747768 -0.027703404

onnx::Conv_24 f4 [64, 3, 7, 7]
000000 55 9e 86 bd 57 7c a1 bd e7 c1 4a bd 59 6d 9c bd
       -0.06573168 -0.07885044 -0.049501326 -0.07638044
000010 7d 92 9c bb 98 59 2a 3d fb 5f 52 3d 99 8c 1a 3d
       -0.004778205 0.04158935 0.051361065 0.03773174
000020 ed 58 91 bd 93 2d ae 3c c1 c2 80 bd 24 10 1d bd
       -0.07097039 0.021261966 -0.06287146 -0.03834547
000030 77 f4 20 3d 7f cc 53 3d c5 7c ef bc 40 3d 07 3d
       0.03929564 0.051708695 -0.0292343 0.033017397
000040 5f 03 6f bd 6f f0 64 bd 1f b8 27 bd 4a 64 a1 bd
       -0.058352824 -0.055893358 -0.040947076 -0.07880457
000050 45 49 1b 3c e6 13 95 bd 21 67 34 3d c7 f8 e9 3c
       0.009477918 -0.07279186 0.044043664 0.02856101
000060 40 26 75 3c a1 2b 23 bd 37 52 dd bc e8 cd db 3c
       0.014962733 -0.03983653 -0.027016742 0.026831582
000070 81 86 04 3d e0 39 44 3b 07 0d 6c 3d f6 f4 9c 3d
       0.032354835 0.0029941723 0.05762961 0.0766391
000080 d3 04 dd bc 63 e1 71 bd b4 bc 1f 3d 50 4a b6 bc
       -0.02697984 -0.059052836 0.03899832 -0.022252232
000090 c1 b6 c0 3c 13 56 96 3d 2c 5a 1d 3c e7 72 c5 3c
       0.023524644 0.07340636 0.009604018 0.024102641
0000a0 91 e1 6f bd 41 65 75 bd 27 48 5e bc 03 11 f7 3c
       -0.058564726 -0.059911016 -0.013567007 0.030159479
0000b0 8f 48 55 bd bc f7 72 3d 85 ab a7 3d be 75 f8 3c
       -0.05207115 0.05931829 0.08187012 0.030329581
0000c0 01 04 30 bd be 79 85 3d 3f da 81 bd a8 8d 92 bc
       -0.04297257 0.06517361 -0.06340455 -0.017889813
0000d0 7e f1 9e 3d 5c b1 c8 bc 76 16 79 3d a5 00 1b bc
       0.07760905 -0.024498634 0.060812436 -0.009460603
0000e0 fa e4 97 3d 74 d0 67 bc 6a cc bc 3c 11 1d a7 3c
       0.07416721 -0.01414882 0.023046691 0.020399602
0000f0 c7 b6 5d 3d 66 2e e2 bc ce b6 49 3c 99 58 08 3d
       0.05412939 -0.027610015 0.01231165 0.03328762
000100 f1 0b 49 bd 8c 3c ce 3c 63 65 2e bd 3f ef 6a 3d
       -0.049083654 0.025175355 -0.04257716 0.05735707
000110 ea ad 80 3c b7 04 03 3d a5 25 33 3d 50 d2 72 bb
       0.015707929 0.03198692 0.043737072 -0.0037051626
000120 2d 54 ad bc d7 08 de bc c6 7c a1 bd 63 fc 99 3d
       -0.021158302 -0.027103825 -0.07885127 0.07518842
000130 d1 ba 9a bd 42 4e a4 3d f7 55 5d bb 9f 6a 51 3d
       -0.07555164 0.08022739 -0.0033773163 0.051127072
000140 ae 36 1c bd e4 f0 f3 3c e7 de 5d 3c c0 78 5b bd
       -0.038138084 0.029777952 0.013541914 -0.053581953
000150 e9 98 ef bc 4b b8 20 3d d4 e1 35 3c b5 d0 0c bd
       -0.029247718 0.039238255 0.011101205 -0.034378726
000160 96 a9 af 3c 9e c5 c9 3b ca d0 60 3d 26 4b 2d bd
       0.02144317 0.006157591 0.054886617 -0.042307995
000170 b3 3a 39 3d fb 05 41 bd 89 74 7b 3d fb 7d 16 3d
       0.045221996 -0.047124844 0.061390433 0.036741238
000180 0d aa 48 bd 2e 7c 3b 3d 24 45 19 3d 3f 53 47 3d
       -0.048990298 0.045772724 0.037419453 0.048663374
000190 4f 8c 5e 3d d4 b4 50 bc a5 0a 96 3d 01 db 49 bd
       0.054333027 -0.012738425 0.07326249 -0.049281124
0001a0 cb 5a 53 3d 39 a0 6f 3d 24 fc d3 bc 33 c1 08 3b
       0.05160026 0.05850241 -0.025877066 0.0020867109
0001b0 30 1e a5 bd c3 db 09 3c 8f c1 ae 3c b3 f6 50 bd
       -0.080623984 0.008414212 0.02133253 -0.05101652
0001c0 b0 d6 86 3c 79 29 a3 bd 13 ee 0f 3d 37 a5 a6 3d
       0.016459793 -0.07966895 0.035139155 0.08136981
0001d0 6d 1e a1 3d 05 18 1b 3c 22 bf 70 bd a5 96 7b 3d
       0.078671314 0.009466176 -0.05877603 0.061422963
0001e0 19 8c 88 bd 14 8b a3 3d 03 9b a6 bd 46 0f 32 3a
       -0.066673465 0.079855114 -0.08135035 0.0006792437
0001f0 9c 49 86 3c 0b 64 28 3d 96 d6 36 bd c3 65 88 3c
       0.016392522 0.041111033 -0.04463824 0.016650086
000200 d9 43 a1 bd b6 60 98 bd a9 0a 20 3d fa 16 80 bd
       -0.07874269 -0.07440321 0.039072666 -0.062543824
000210 59 36 16 bd 93 c3 6a bd 0a 32 a3 3b 86 c9 7a 3d
       -0.036672924 -0.05731542 0.0049803304 0.061227344
000220 77 a5 46 3d 95 e1 35 bd cd f3 9a 3c 71 d4 8f 3c
       0.048497643 -0.044404585 0.018915081 0.017557355
000230 b9 52 d9 bc fa 92 e2 3c 0c a2 43 3d 82 80 25 3c
       -0.026528703 0.027657975 0.04776196 0.010101439
000240 42 93 2b 3d fd 49 36 bd a0 04 81 3d 09 3e 24 bd
       0.041888483 -0.044504154 0.0629971 -0.040098224
000250 8f 51 09 bd ac 1f 92 3d 5e 9b 6e bd fa 9b 80 3d
       -0.033525046 0.07134947 -0.05825364 0.0627975
000260 18 a4 a9 3c 76 52 7b 3d 71 5a 2c 3d 72 82 3b bd
       0.020708129 0.061357938 0.04207844 -0.0457787
000270 ed ea 9a 3c 62 33 87 3d 3a af 62 3d f2 30 99 bd
       0.01891085 0.06601597 0.05534289 -0.07480039
000280 88 63 7a bd de d7 49 3d 3c 67 aa bc f8 65 9f bd
       -0.061130077 0.049278133 -0.02080118 -0.07783121
000290 b2 61 56 3d 46 2e 0c bd 81 3f 63 3d 48 90 29 3b
       0.052339263 -0.034223817 0.055480484 0.0025873352
0002a0 dd cf 79 bd 91 26 9b 3d 75 73 8f bc c2 46 bc 39
       -0.06098925 0.07575715 -0.017511109 0.00035910873
0002b0 d2 6d 9e 3d 91 ec f7 bc d9 af 59 bb f2 19 8a bd
       0.0773579 -0.03026417 -0.0033216386 -0.0674323
0002c0 38 96 8d bd f7 11 4f bd 8a 33 a5 bb c9 10 1f bd
       -0.069134176 -0.050554242 -0.0050415443 -0.038834367
0002d0 d1 d9 9c 3d f5 70 4c bc 4e f9 bb bc 25 d7 7c bc
       0.07658733 -0.012478103 -0.022946026 -0.015432154
0002e0 9a ed 29 bd 13 14 a2 3d 0d 23 e5 3c 2f 97 82 3d
       -0.04148636 0.07913985 0.027970815 0.06376492
0002f0 08 85 c8 bc 9d 39 83 3c 8e 5a ee 3c 71 26 4f bd
       -0.024477497 0.016018683 0.029095914 -0.05057377
000300 9b a7 44 3d 96 f2 49 3d bf 8f 12 bd aa d8 86 bd
       0.048011404 0.049303614 -0.03578162 -0.06584294
000310 02 b1 ed 3c 55 ea 82 3c 85 e1 6f 3d 82 36 11 3d
       0.029015068 0.015980879 0.05856468 0.035452373
000320 f9 1c 94 bd f4 c4 21 bd c9 e5 fd 3c 22 7d 86 bd
       -0.072320886 -0.03949447 0.03099336 -0.06566836
000330 03 4f 3a 3b 1c 14 a8 bd e6 a1 99 3c b5 9d 81 3d
       0.0028428442 -0.082069606 0.018753957 0.06328908
000340 df 87 83 bd e6 0a 3d bd 15 17 03 3b 71 ee 4c 3d
       -0.064224 -0.04615297 0.0020002772 0.050032083
000350 7e 75 28 bd cc 85 99 bd 2e d6 49 bd c1 de 29 bd
       -0.041127674 -0.07496223 -0.049276523 -0.0414722
000360 e7 b1 6a 3d 56 10 96 bd 38 2c 8b 3d 55 c1 52 bd
       0.057298567 -0.073273346 0.067955434 -0.051453907
000370 6b 47 0a bd ad 65 8f 3d 8d da 9c bc b4 7d d0 bc
       -0.033759516 0.07001815 -0.019147182 -0.025450565
000380 e1 d1 be 3b 1d b3 48 bd 9e 9c 91 3d 0c b3 37 3d
       0.0058233594 -0.04899894 0.071099505 0.044848487
000390 ac 30 65 bd 6d 24 a8 3c d8 75 da 3c 82 52 29 bd
       -0.05595462 0.020525182 0.02666752 -0.04133845
0003a0 10 b6 2f bd 81 2d 89 3d c1 f5 1e bd 99 ab 88 bd
       -0.042898238 0.06698132 -0.038808588 -0.06673355
0003b0 2f 6d 16 3c df cc ac bc 29 5b 20 bd 74 ec 86 bb
       0.009181305 -0.021093784 -0.039149437 -0.004117543
0003c0 05 4f 0a 3d 14 e3 f2 3c 4a bb 91 3d 66 13 40 bd
       0.033766765 0.029649295 0.07115801 -0.0468935
0003d0 df 6a 2c bc 59 90 ad bc 2c a1 0d bd c0 6e 9e 3d
       -0.010523527 -0.021186994 -0.034577534 0.07735968
0003e0 ee 11 17 bc 56 8f 2f 3d eb fe 87 bd f6 bf 55 3d
       -0.009220583 0.042861305 -0.066404186 0.05218502
0003f0 4b 3f 0f bd e1 f8 93 3d ea 7d 62 3d 0e 9f 1b bd
       -0.03497247 0.07225204 0.055295862 -0.037993483

onnx::Conv_25 f4 [64]
000000 34 f4 91 bd 15 5e 7d 3d b5 70 0a bd a7 b1 89 bd
       -0.07126656 0.0618573 -0.033798892 -0.067233376
000010 ad 88 d7 bc de 1d 57 bd 3f 60 f7 3b 2d a6 88 3d
       -0.02631029 -0.052518718 0.007549315 0.066723205
000020 a6 68 93 3d bb 07 23 3d 4a 15 97 3c b1 f6 88 3d
       0.071976945 0.039802294 0.018442769 0.06687678
000030 49 b8 60 bd 95 60 b3 bc 56 f4 a7 bd 60 d9 c1 bb
       -0.054863248 -0.02189664 -0.082009 -0.0059158057
000040 86 41 e0 3c c9 20 a4 bd 81 d5 7d 3d ae 56 fb 3a
       0.027374994 -0.08014066 0.06197119 0.0019175613
000050 c5 37 03 3c 86 7f 9f 3d 82 40 ed 3b b9 af 59 3d
       0.008008902 0.07787995 0.007240356 0.053146098
000060 39 0d 0c bd cf 8b ad 3c a8 44 7c bd 9d 8c 7d bc
       -0.034192298 0.02118483 -0.061588913 -0.015475419
000070 89 e2 d0 bc 28 33 93 3c 6a f6 12 3d cc 6c 1e 3c
       -0.025498645 0.01796873 0.03587953 0.009669494
000080 93 87 09 3b 09 7f 0f 3c 1e 0b 3f bd 1c da 05 bc
       0.002098535 0.008758315 -0.04664146 -0.008169677
000090 3f 85 c5 3b 9e 5f 4a 3d 53 f5 fc bc da 6d 99 bc
       0.006027847 0.049407594 -0.030878698 -0.01872914
0000a0 b3 68 46 3d fe ad 4d bd cb 43 3a 3d 05 2e cd bc
       0.048439693 -0.05021476 0.04547481 -0.025046358
0000b0 34 1a c3 3c 5e 01 a8 bd fd c3 cc bb 8d a0 88 bd
       0.023816206 -0.08203386 -0.0062489496 -0.06671248
0000c0 9a 02 01 bd c0 75 47 bd ac ef 18 bd d6 ad a5 3c
       -0.03149662 -0.04869628 -0.037337944 0.020224493
0000d0 95 63 8f bc 7f f8 f5 bc 66 08 a0 bd fa d6 0e bd
       -0.01750354 -0.030025719 -0.07814102 -0.034872986
0000e0 58 e7 85 bc 0b a2 d1 3c 06 2c b0 3a 6d 19 39 bd
       -0.016345665 0.025589963 0.0013440854 -0.045190264
0000f0 59 90 a1 3d 27 4c 89 3d 7e 9f 61 3c 19 0f 3a bd
       0.0788886 0.06703978 0.013770936 -0.045424554
